Application/EDAIC/data.pth (torch, 5015 bytes, 6 tensors)

l1.weight f4 [8, 54]
0	0xbea823ee	-0.32839912
1	0x3ecc673c	0.39922512
2	0xbed9efa2	-0.42565638
3	0x3db40e2a	0.08791764
4	0x3d12e10c	0.035859153
5	0x3f2b7f73	0.6699135
6	0xbea841c2	-0.3286267
7	0xbed0e6c2	-0.40801054
8	0xbf037360	-0.51347923
9	0xbea59d80	-0.32346725
10	0x3df0a2e8	0.11749822
11	0xbdfee5ed	-0.124461986
12	0x3e4e227a	0.2013034
13	0xbe061b36	-0.13096318
14	0x3eae186d	0.3400301
15	0xbdb349db	-0.08754321
16	0x3eb2bc20	0.34909153
17	0x3f1c691b	0.6109788
18	0x3f348f9e	0.7053164
19	0x3e2afcea	0.16698042
20	0xbe5864d7	-0.21132217
21	0x3e49a2bd	0.19690986
22	0x3e3a83d6	0.18214354
23	0x3e5c2a72	0.21500567
24	0xbe4e860d	-0.20168324
25	0x3d5a926b	0.05336229
26	0x3f365e03	0.712372
27	0x3f07f5f3	0.53109664
28	0x3f05ecdd	0.5231455
29	0x3eb276da	0.34856302
30	0x3eab1db9	0.33421114
31	0xbe4b5238	-0.19855583
32	0xbdad7a42	-0.084705845
33	0xbf1c35d0	-0.6101961
34	0x3f0cfe09	0.55075127
35	0xbdcf8f91	-0.10134805
36	0x3f17940d	0.5921028
37	0xbf00dcdd	-0.5033701
38	0xbd6f8852	-0.058479615
39	0xbdc80554	-0.09766641
40	0x3ee27243	0.442278
41	0x3f55990a	0.83436644
42	0xbdac7f6a	-0.0842274
43	0x3ebbfcdf	0.36716363
44	0xbeb49a6b	-0.35274062
45	0x3ec2d71f	0.3805475
46	0xbf626167	-0.88429874
47	0xbe88be78	-0.26707816
48	0x3ef3f79e	0.47649854
49	0x3f6b7bcf	0.9198579
50	0x3dbfaebf	0.09359502
51	0x3f1ff6d7	0.6248602
52	0xbe08eac5	-0.13370807
53	0x3dfdbf93	0.123900555
54	0x3e7a3a3d	0.24436279
55	0xbdc36af4	-0.09541884
56	0x3e822962	0.25422198
57	0x3eafe9c1	0.34358028
58	0x3e219139	0.15778054
59	0x3f08f0f5	0.5349267
60	0x3e0a15e1	0.13484909
61	0x3d47ed2e	0.048810177
62	0x3e163dcc	0.14672011
63	0x3e08af69	0.13348164
64	0x3ee607c2	0.44927794
65	0x3ef3f25a	0.47645837
66	0xbb9866e8	-0.0046509393
67	0x3eefbd8a	0.46824294
68	0xbe58d92d	-0.21176596
69	0x3eb4496e	0.35212272
70	0x3eb29212	0.34877068
71	0x3ed074f6	0.40714234
72	0xbe76a364	-0.24085766
73	0x3ec98320	0.39357853
74	0x3e2edb6f	0.17075895
75	0x3ed3a100	0.4133377
76	0x3ec87c83	0.39157495
77	0x3f26a911	0.65101725
78	0x3ead9edf	0.33910272
79	0x3ef50089	0.4785197
80	0xbeff449e	-0.49857038
81	0xbf0fc5c3	-0.56161135
82	0xbdf197ec	-0.11796555
83	0xbeaebcc6	-0.34128398
84	0x3e8e062a	0.27739078
85	0x3e871f25	0.2639095
86	0x3e56d091	0.20978
87	0x3e8ee9d7	0.2791278
88	0xbe413567	-0.18868028
89	0x3ee152f4	0.440086
90	0xbe85e58a	-0.26151687
91	0x3e3eab11	0.18619944
92	0x3daabb21	0.08336473
93	0x3e18100f	0.14849876
94	0x3e7b00e6	0.24512061
95	0xbf1c5f2e	-0.6108273
96	0x3e2edfa9	0.17077507
97	0xbe969cab	-0.29416403
98	0x3edea5ad	0.43485776
99	0xbe7fb965	-0.24973066
100	0x3f1b0524	0.6055472
101	0x3e8c3585	0.27384582
102	0x3e86f787	0.26360723
103	0xbef9acff	-0.48764798
104	0x3ec45b2c	0.3835081
105	0xbeb7d7bb	-0.35906777
106	0xb8a54ce7	-7.882137e-05
107	0x3e24be1a	0.16088143
108	0x3f1cce81	0.612526
109	0x3f1d396a	0.6141573
110	0xbd3f6e10	-0.046735823
111	0xbe235b18	-0.15952718
112	0xbf18e228	-0.5972009
113	0xbe7b3646	-0.24532422
114	0xbdb07a17	-0.08617037
115	0xbdd2c9f4	-0.10292426
116	0x3eac1eb1	0.33617166
117	0xbe69c970	-0.22830749
118	0xbeab6b24	-0.3348018
119	0x3efc4f70	0.49279356
120	0x3eb62bf7	0.35580418
121	0x3f1ea407	0.61969036
122	0x3ef33eeb	0.4750894
123	0x3ef5700a	0.47937042
124	0xbe21855b	-0.15773527
125	0xbe913597	-0.28361198
126	0xbec2e821	-0.38067725
127	0xbefc1d88	-0.4924128
128	0x3f122709	0.5709081
129	0xbefc4073	-0.4926792
130	0xbefc387a	-0.49261838
131	0x3da606e0	0.0810678
132	0x3eaa6258	0.33278155
133	0xbda37c63	-0.07982709
134	0xbde77efd	-0.11303518
135	0x3edd5732	0.43230587
136	0x3d2d78dc	0.04235159
137	0x3e9eb033	0.30993804
138	0xbe8489d8	-0.25886416
139	0x3f126d84	0.5719836
140	0x3ebaa7bb	0.36456093
141	0xbc84cb04	-0.016210087
142	0x3ece3ab2	0.40279156
143	0x3eedf23e	0.4647388
144	0x3d78ab2e	0.060710125
145	0x3eec5e65	0.46165767
146	0xbc3c46a3	-0.0114914505
147	0xbba2f318	-0.0049728267
148	0xbd3ba2d4	-0.045809582
149	0xbede8d41	-0.43467143
150	0x3ef17766	0.47161406
151	0x3ebbc38b	0.36672625
152	0x3eea8c6f	0.45810267
153	0x3f01cf96	0.50707376
154	0x3f4acb45	0.79216415
155	0x3f159081	0.5842362
156	0xbe819de1	-0.25315765
157	0xbeca0a60	-0.3946104
158	0x3ef8772e	0.48528427
159	0xbec25628	-0.37956357
160	0x3dda5d5d	0.10662339
161	0x3ccf9d24	0.025343485
162	0xbe861643	-0.2618886
163	0x3f00b55a	0.5027672
164	0xbead7472	-0.33877903
165	0xbe50b21c	-0.20380443
166	0xbef7b4b1	-0.48380044
167	0x3f763f7c	0.9619062
168	0xbe39b49b	-0.18135302
169	0xbec52b13	-0.38509426
170	0xbd6d2274	-0.057894185
171	0xbf10987b	-0.56482667
172	0xbe5dd8cf	-0.21664737
173	0x3f5e1a6a	0.86759055
174	0x3e492132	0.1964157
175	0x3f78c887	0.9718098
176	0x3efe1e9a	0.49632722
177	0x3ee97763	0.45598897
178	0xbe93bc66	-0.28854674
179	0x3f8964b3	1.0733856
180	0xbe50619a	-0.20349732
181	0xbf015a4d	-0.50528413
182	0xbe1fed55	-0.15617879
183	0xbf01656e	-0.50545394
184	0xbf015102	-0.50514233
185	0x3ebb8f29	0.3663266
186	0x3e94525e	0.2896909
187	0xbe389f8d	-0.18029614
188	0x3a59a621	0.0008302648
189	0x3f363b3a	0.7118412
190	0xbe186d6b	-0.1488549
191	0x3f09a70c	0.5377052
192	0x3f4f08dd	0.808729
193	0x3f6cdf5e	0.9252833
194	0xbed9a89b	-0.42511448
195	0xbee28fae	-0.44250244
196	0x3f151a04	0.5824282
197	0x3f2224c8	0.63337374
198	0x3c870367	0.016481115
199	0xbd338109	-0.04382423
200	0xbe442ce1	-0.19157745
201	0xbe931eee	-0.28734535
202	0x3f671bef	0.90277
203	0xbe1ad26f	-0.15119337
204	0x3f3b890b	0.73255986
205	0x3ed5e744	0.41778004
206	0x3e6dc272	0.23218706
207	0x3ee6a970	0.45051146
208	0xbe6c4fa1	-0.23077251
209	0x3d6245d8	0.05524239
210	0xbdf7f898	-0.12107962
211	0xbe1b9aee	-0.1519582
212	0x3ef2504f	0.47326896
213	0xbdeb8d06	-0.115015075
214	0xbe09c245	-0.13453014
215	0x3da3df01	0.08001519
216	0x3ed0a13a	0.40748006
217	0xbcb30918	-0.021854922
218	0xbde9af83	-0.11410429
219	0x3e6bf8a3	0.23044066
220	0xbe76e5b3	-0.24111061
221	0x3f108ef6	0.5646814
222	0x374c6cc0	1.2184668e-05
223	0xbe8e546e	-0.2779879
224	0x3cc93f7a	0.0245664
225	0xbe9a019e	-0.3007936
226	0x3e82cf4d	0.25548783
227	0x3ee18895	0.44049516
228	0xbec03fad	-0.3754858
229	0x3ef52e85	0.47887054
230	0xbd162005	-0.03665163
231	0x3f0186f4	0.5059655
232	0x3decf65c	0.11570427
233	0x3efbd321	0.49184516
234	0xbe2b48c2	-0.16726974
235	0x3e191253	0.14948396
236	0x3f1e6f17	0.6188826
237	0x3e5e62c3	0.21717362
238	0x3e3f9042	0.18707374
239	0x3ec21062	0.37903124
240	0xbdc95431	-0.09830511
241	0x3e93b0ce	0.2884583
242	0xbea704d7	-0.3262088
243	0xbe325f03	-0.17419057
244	0xbdfa81d0	-0.12231791
245	0x3f0c44cf	0.54792494
246	0x3e50930d	0.20368595
247	0x3ed1e70e	0.40996593
248	0x3e53526e	0.20636913
249	0xbd0b47fd	-0.0340042
250	0xbea48f2f	-0.3214049
251	0x3ed89da8	0.42307782
252	0x3cf7ce20	0.030249655
253	0xbe3fcd11	-0.1873057
254	0xbdbf76cd	-0.09348831
255	0xbd95beae	-0.0731176

l1.bias f4 [8]
0	0x3f630445	0.8867839
1	0x3f713925	0.9422782
2	0x3efc209f	0.49243638
3	0x3f0153ef	0.505187
4	0x3f675dcc	0.903775
5	0xbde68717	-0.11256235
6	0x3efca4cd	0.49344483
7	0x3f7e98aa	0.99451697

l2.weight f4 [8, 8]
0	0x3ee014a3	0.43765745
1	0x3e1b81eb	0.15186279
2	0x3f9014b8	1.1256323
3	0x3f86ba56	1.0525615
4	0x3f13c28c	0.5771873
5	0xbe41649c	-0.18886036
6	0x3e8e0ceb	0.2774423
7	0xbf28a2c9	-0.6587339
8	0x3f8b1032	1.0864317
9	0x3f8a5cc1	1.0809556
10	0xbdbfc70b	-0.09364136
11	0x3f80b637	1.0055608
12	0x3fb3b801	1.4040529
13	0x3e307399	0.17231597
14	0xbf934950	-1.1506748
15	0xbefb6403	-0.4909974
16	0xbea6d4e1	-0.3258429
17	0x3dd334dc	0.103128165
18	0xbe8ad44d	-0.27115098
19	0x3e0c1c82	0.1368275
20	0xbe7c38ac	-0.24630994
21	0x3e4d0c3e	0.20024201
22	0x3e81151d	0.2521142
23	0xbe030efd	-0.12798686
24	0xbeaa4fb6	-0.3326394
25	0xbc95e020	-0.018295348
26	0x3e91e71b	0.28496632
27	0xbeacba75	-0.33736005
28	0xbe3c190b	-0.18368928
29	0xbe6835e4	-0.22676808
30	0xbe9c90ef	-0.30579326
31	0x3cbc9820	0.023021758
32	0xbf9469a8	-1.1594744
33	0x3e6ef7ff	0.2333679
34	0x3f9057aa	1.1276753
35	0xbe2484fc	-0.16066355
36	0x3f80673b	1.0031503
37	0xbea92d47	-0.33042356
38	0x3f1ddd05	0.61665374
39	0xbe385a1d	-0.18003125
40	0xbf7ca09a	-0.9868256
41	0x3efabb24	0.48970902
42	0x3f98eb6d	1.1946846
43	0x3c541b22	0.012945922
44	0x3eca8e30	0.39561605
45	0x3e81e679	0.2537115
46	0x3f1da58a	0.6158072
47	0x3cceff76	0.025268298
48	0x3f840cfa	1.031646
49	0xbfbc9bfa	-1.47351
50	0x3e0d1b22	0.13779882
51	0x3ebdc2fc	0.37062824
52	0xbec5dff9	-0.3864744
53	0x3e045f6e	0.12927029
54	0x3f81e57f	1.0148162
55	0x3f5dd574	0.8665383
56	0x3e11c9d3	0.14237146
57	0x3f2ce101	0.6753083
58	0xbdf91a20	-0.12163186
59	0xbf93efe6	-1.1557586
60	0x3f0cc94f	0.5499467
61	0xbe8f6ef1	-0.2801433
62	0x3f33f909	0.7030187
63	0x3fd206dd	1.6408345

l2.bias f4 [8]
0	0xbe1f7269	-0.15570988
1	0x3f3870df	0.7204723
2	0xbea3e912	-0.32013756
3	0xbea3be2c	-0.31981027
4	0x3da38f34	0.07986298
5	0xbdb443cb	-0.08801993
6	0xbe614dbb	-0.22002308
7	0x3f830212	1.0235007

l3.weight f4 [7, 8]
0	0x3ee6437e	0.44973367
1	0x3ea73ded	0.32664433
2	0xbd5cb0d0	-0.05387956
3	0xbe92d515	-0.28678194
4	0x3e8bba64	0.27290642
5	0x3ea98f43	0.33117113
6	0xbf3795e2	-0.7171308
7	0xbfdcb3a2	-1.724232
8	0x3f4354a7	0.76301044
9	0xbf206c8f	-0.6266565
10	0xbe3aa10d	-0.18225498
11	0xbc98c520	-0.018648684
12	0xbf252330	-0.64506817
13	0xbf32ebeb	-0.6989123
14	0x3f0f8a47	0.5607037
15	0xbeeab89a	-0.45843965
16	0x3ee33618	0.44377208
17	0x3f83a542	1.0284808
18	0xbcf03290	-0.029320985
19	0xbd72c3e0	-0.059268832
20	0xbf877b4b	-1.0584501
21	0xbfb725be	-1.4308393
22	0xbf417959	-0.75575787
23	0xbf5b931b	-0.8577134
24	0xbfac11e0	-1.3442955
25	0x3f09c645	0.5381816
26	0xbdbd5140	-0.09244013
27	0xbdb5969c	-0.08866617
28	0xbfde755a	-1.7379563
29	0xbfb5aa15	-1.419253
30	0xbf4897cf	-0.7835664
31	0x3f384e02	0.7199403
32	0xbf86771a	-1.0505097
33	0xbf643086	-0.8913654
34	0xbe68b6c9	-0.22725977
35	0xbe60038b	-0.21876352
36	0xbf8b9758	-1.0905561
37	0xbf8f1ead	-1.1181237
38	0x3f366a83	0.71256274
39	0x3e9704a5	0.2949573
40	0xbf9636d2	-1.173548
41	0xbfd15d91	-1.6356679
42	0xbdb6c488	-0.08924204
43	0xbe19eb67	-0.15031205
44	0xbeedf570	-0.46476316
45	0x3eb0a7cb	0.34503016
46	0xbf242eec	-0.641341
47	0x3f4396bc	0.7640188
48	0x3de44674	0.1114625
49	0xbe6d2f0f	-0.23162483
50	0xbe579c56	-0.21055731
51	0x3e5edafe	0.21763226
52	0x3f221cd4	0.6332524
53	0x3e9719af	0.29511783
54	0xbf904e0e	-1.127382
55	0xbe89b99a	-0.26899415

l3.bias f4 [7]
0	0xbe1e95ee	-0.15486881
1	0xbe89d531	-0.26920465
2	0x3e6d718e	0.23187849
3	0x3ebbf26b	0.36708388
4	0xbe9e9b02	-0.30977637
5	0x3eff8380	0.49905014
6	0x3ea99934	0.33124697
